best_model.pth (torch, 19366 bytes, 5 tensors)

fc1.weight f4 [64, 31]
00000000: 0202 e9bd c9f2 043e 48cd 4cbe f630 22bd
00000010: 3866 a1bb 6a91 0a3e 2b45 5bbd 2ef9 353d
00000020: 7559 a53d 16fc e0bd f167 21bd fba5 22bd
00000030: 24f1 e9bc a784 f53e ce97 163e d843 0abd
00000040: 0eed c8bd 3c92 47bd d1bc b0bd c500 b9bd
00000050: 49bf 13bf 4c06 12bd 4469 b23c 6ca2 95be
00000060: 0ae2 883e 951a 443e 868d 4e3e 9a23 173e
00000070: 4d04 7c3e 09c8 963d cab1 3b3e edaf b03e
00000080: 3ea9 5c3e 8b8c 63bd 5935 09be aa9f 473e
00000090: e913 223e c797 c13d 6425 14be e6c0 ca3d
000000a0: 598d 333c 939c 413d cc7c 98bd d21b d0bc
000000b0: 1dce bc3e f103 a43e 8efc 05be dce4 b4bd
000000c0: ec6e 003e 572d a6bc 89e8 b23d ad8e a9be
000000d0: 956e 8dbd d4b0 3d3d ad87 ebbd 4b24 d43e
000000e0: 19ad 183e a03d 663e f26a b43e 6e9f ff3d
000000f0: e5ed 1dbc f2fc 1abe cf85 85bd f80a 143e
00000100: 8aa4 2ebe 68e0 89bd a748 bf3d 1337 6a3d
00000110: 7a0f 763d 5a72 9e3d c276 83bd 85c5 4b3d
00000120: 9da7 98bd 4135 5e3d 1aa4 a83d 4832 b03e
00000130: 7d3e e03e feca 74bd 62dd 7fbd 9aee 703c
00000140: 90ab b33d 399e 093b 12a4 63be 53ee 333c
00000150: 0b43 343b 2faf 6ebe e288 983e f90d 5c3e
00000160: e285 8c3e 5850 933c f18b 9abd 18f4 db3d
00000170: b2e3 083d f411 42bc a6a8 75be b3fa b4bc
00000180: b1dd 973d df85 983b f8be 7d3c 1c97 13bb
00000190: 9728 a03d 2c51 333d 1330 d2bc 47d2 d03c
000001a0: c628 08bc fccc a53b 8f67 d9be ce19 60be
000001b0: bbc9 29bc 301c 113e 8aa8 4e3d 81d5 2b3c
000001c0: 17c3 613d 593b d83e 4bbd 9d3c 5840 933b
000001d0: 98cb 373e 7d8d cabe e795 b4bd 8915 3bbe
000001e0: 428c a4bd 6d00 1a3d d65f 9dbd 0d87 183d
000001f0: b18c c83e 9314 c33d 0209 7abe 4c18 3bbe
00000200: 6abb ba3d 9381 1ebd a1dd 2d3c 70b7 77bd
00000210: 1688 18be a033 283e e54d d1bd a5fc 0ebe
00000220: a8d7 84bd 7944 4d3e 9fa2 743d aff2 a3bd
00000230: 81d2 20be 4caa 6abe 193f b3bd 95a9 953c
00000240: 7d62 403d 041a a03c eca5 c3bd c04f 03be
00000250: bff3 de3d d538 843d a7fe 6fbe 9096 8b3d
00000260: 85b5 b13e 52d6 a13d 8865 38be af0a 65bb
00000270: a089 17be d17f 9dbd 03c5 44be a015 96be
00000280: 20c7 39be d8bf 2cbd 8341 903d 65f6 3e3d
00000290: 3993 8bbd 7eee e1bd 35f7 f2bd 6201 263e
000002a0: 7325 8ebe 8bb7 5ebe a7be eabc 3622 c93c
000002b0: 3fe5 4bbe 8e9b 1d3e d795 663e f588 0f3e
000002c0: faa3 3cbd f718 983b 1c64 f33d 890a 23be
000002d0: a106 bd3e 084d 2dbb 0cbb 18be 6792 a33d
000002e0: e0b8 6bbd ae91 72bd 4909 81bd 1d45 5e3e
000002f0: 667a b63d 8caa aebd 6b23 b3ba 7ad9 0cbe
00000300: 5d3a d4bd c1b2 9f3d fe8b ae3d 2d76 873c
00000310: aa11 a73c 9f23 0cbc 0d9f e6bc 87ed b83e
00000320: 22a3 583e 3151 3cbd a8e5 e0bc 83bd 98be
00000330: 6b20 093c ca7d 2bbd ce5d c9be 6bbf c9bc
00000340: ab7c 3abc 34dd 2abd 563a 7b3e 7ed0 9a3d
00000350: ecab 303e 8a49 0b3d aa4a d4bd a0fc aabd
00000360: 9f19 173e 10e2 2e3d 2cb2 14be 31b2 853c
00000370: 7276 dc3d 14b4 52bd 4874 c43b e9be 94bb
00000380: 4d42 7fbc ab3c 46bd 2a6d c23b 3720 b43a
00000390: 7b4d 0dbd 2415 9c3b a6a3 8bbe 2e72 22be
000003a0: 6cd9 0c3d 0df9 c33d d077 4bbd 5f45 bcbc
000003b0: bc57 74bc b8b9 9a3e 5531 213d 5599 ecbc
000003c0: 887d 3f3e 55f1 9cbe cb56 ffbd 0061 b1be
000003d0: 45e2 2b3b 51dc 27be faf4 6c3b 7c26 82bb
000003e0: a311 11be 7f99 413e 7b39 66be e2f0 963c
000003f0: ade8 97bd b87b 583d 4db4 4ebd 570c 243d
-0.11377336 0.1298324 -0.20000184 -0.039597474 -0.0049255155 0.13532034 -0.05353276 0.04442709
0.08073703 -0.109855816 -0.039405767 -0.039709073 -0.028557368 0.47952768 0.14706346 -0.033756107
-0.098108396 -0.048723444 -0.08629764 -0.0903335 -0.57713753 -0.035650536 0.02177871 -0.2922548
0.26734954 0.19150765 0.20171174 0.14759675 0.24611016 0.073623724 0.1832954 0.3450922
0.21548936 -0.055553954 -0.13399257 0.19494501 0.15827908 0.09452777 -0.14467388 0.09900074
0.010958993 0.04726846 -0.07445678 -0.02540389 0.36876002 0.32034257 -0.13084623 -0.08832714
0.12542313 -0.020285292 0.08735759 -0.33116665 -0.069058575 0.046311215 -0.115004875 0.4143394
0.14909782 0.22484446 0.35237843 0.12481581 -0.009639238 -0.15135553 -0.065196626 0.14457309
-0.17054954 -0.06732255 0.09340029 0.05718143 0.060073353 0.077366546 -0.06419136 0.049748916
-0.07453845 0.054250006 0.08234425 0.34413362 0.43797675 -0.0597639 -0.062466986 0.014705325
0.08772957 0.002099885 -0.22230557 0.010982114 0.002750578 -0.23309015 0.29791933 0.21489705
0.27445894 0.017982647 -0.07546223 0.107399166 0.033420272 -0.011845101 -0.23990116 -0.022092199
0.07415331 0.0046546306 0.015487425 -0.0022520488 0.07820242 0.043778583 -0.02565769 0.025490893
-0.008310502 0.0050598364 -0.4246182 -0.21884844 -0.010363038 0.14170909 0.0504537 0.010487915
0.055117693 0.4223278 0.019255301 0.0044937544 0.17948759 -0.39561072 -0.08817654 -0.18269934
-0.080345646 0.037598062 -0.07684295 0.03723817 0.3916984 0.095254086 -0.24417499 -0.18270987
0.09117778 -0.03869779 0.0106119225 -0.060477674 -0.14895663 0.16425943 -0.10219935 -0.13963564
-0.06486446 0.20045651 0.0597254 -0.080052726 -0.15705301 -0.22916526 -0.08752269 0.01826934
0.046968926 0.019543655 -0.095531315 -0.12823391 0.10886335 0.06456152 -0.23436986 0.06815827
0.347088 0.079022065 -0.18007481 -0.0034948995 -0.14798594 -0.07690395 -0.19215779 -0.29313374
-0.18142366 -0.042175144 0.07043745 0.0466217 -0.0681519 -0.11031817 -0.11863557 0.16211465
-0.27762946 -0.21749704 -0.028655363 0.024552446 -0.19911669 0.1539137 0.22518097 0.14017089
-0.046054818 0.004641648 0.11884329 -0.15921988 0.3691912 -0.002644362 -0.14915103 0.079869084
-0.057549357 -0.059220962 -0.06300599 0.21706052 0.089100644 -0.08528623 -0.0013667172 -0.13754836
-0.103626944 0.077977665 0.08522795 0.016535843 0.020394165 -0.008553415 -0.028152013 0.3611872
0.2115598 -0.045975868 -0.027453259 -0.29832086 0.008369545 -0.04186801 -0.3932938 -0.024627408
-0.011382262 -0.041714862 0.24533972 0.07559298 0.17253083 0.03400568 -0.103658035 -0.08348966
0.14755867 0.04269606 -0.14521092 0.01632032 0.10764779 -0.051441267 0.005995307 -0.00453936
-0.015579772 -0.0483977 0.0059334235 0.0013742511 -0.03449772 0.0047632623 -0.2727329 -0.15863869
0.034387037 0.09568987 -0.04967481 -0.022982297 -0.014913496 0.30219817 0.039353687 -0.028881708
0.1870023 -0.30652872 -0.12467726 -0.34644318 0.0026227396 -0.16392638 0.003615676 -0.003971873
-0.14166884 0.1890621 -0.22482865 0.018425409 -0.07417426 0.052852362 -0.050464917 0.04005083

fc1.bias f4 [64]
00000000: f186 123d 6ecc 7e3d cb77 d53e 1a04 d7be
00000010: 8fe0 903e 6723 03be 63ab 7a3e 56a0 0cbf
00000020: e13c e23e bc79 0cbf 7d2e 413e 513c 033e
00000030: d709 783e 7b08 8e3e ae3e 133c 4a17 2d3e
00000040: 6f2f 8cbe 3728 7dbe e0e8 bdbe e41b d23d
00000050: ce2c 823e 253d 59bc 2627 183e f02a 8b3e
00000060: f9dc 623e 9638 56be 9e20 70be e992 753e
00000070: 3b97 0b3e 6ff5 5a3d 2622 ccbe f483 10bf
00000080: 99ea 7f3e 22e0 18bf 0aa0 f6bc 95e7 5fbe
00000090: 23a9 d63d 0520 163e 208f aa3e 9849 b63d
000000a0: fe4c 033e e17a 9cbe 2de3 513e 99db ce3d
000000b0: ca7d 7e3d 8102 13ba 5c80 8dbe 2209 aebe
000000c0: 4199 d53d 762e 4cbe aac4 a2bd 04b7 843e
000000d0: df95 05bf fccf 0dbf 5c2e a03e c46b f2be
000000e0: 324a d7be 5538 8a3d 4e75 a93d 8cdf 9dbe
000000f0: a758 dc3d c472 edbb 5a93 ebbe 8cc5 f4be
0.03577322 0.062206678 0.41692957 -0.41995317 0.28296325 -0.12806474 0.24479441 -0.54932153
0.44187072 -0.5487325 0.1886539 0.12815978 0.24222504 0.27740845 0.008987112 0.16903415
-0.2737994 -0.24722372 -0.37091732 0.10259226 0.25424808 -0.013259207 0.14858684 0.27181196
0.22154607 -0.20920023 -0.23449942 0.23981823 0.13631909 0.05345672 -0.39869803 -0.56451344
0.24991836 -0.59717 -0.03010561 -0.21865685 0.10481479 0.14660652 0.3331232 0.08900756
0.12822339 -0.305625 0.20496817 0.10100479 0.06213168 -0.0005607978 -0.27636993 -0.33991343
0.104296215 -0.19939598 -0.07947667 0.2592088 -0.5218181 -0.55395484 0.3128537 -0.47347844
-0.42048794 0.06749026 0.08274327 -0.30834615 0.107590966 -0.007246347 -0.46010858 -0.47806966

fc2.weight f4 [32, 64]
00000000: 8155 b5bd aff2 3dbe c6d7 2fbd 1822 333e
00000010: d48f 73be ed57 663d fd40 35bd a3ae 943e
00000020: e518 69be c564 433e 1ce3 dcbd 4b68 f93c
00000030: b560 85be e1fa 89bd 6b03 11bd 8fbe a7bd
00000040: cdab 8c3c a41f 9e3d 3611 293b e286 50bd
00000050: 8b06 fdbd b8b8 213c 6d03 3ebe b1dc 8abe
00000060: c32b e4bd 4a53 0d3e 7e96 bc3c 590c 39bd
00000070: 8a51 3fbe 44d2 99bd 1f0c 2b3e 1112 413e
00000080: 3cac debd e788 603e 1078 3cba 3374 1ebd
00000090: 48e4 29be cdf9 4e3d 7f7d 18be b423 663d
000000a0: 180d 17be 30b0 86bb e4bc 0cbe b465 44bc
000000b0: 714c cf3d ed8f 22bd fe2b 4c3d 69de d93d
000000c0: 386f 0e3d ee82 77bd 767a 61bc 8f97 8abd
000000d0: a715 c43d a6a2 6c3e 0793 8cbd 1440 c43d
000000e0: f96f 4e3e 0b35 bfbd 6e8a aabd f665 8b3d
000000f0: ad74 50be e55d e3bd 463b 7a3d 4b14 623e
00000100: 7c73 1d3e 9ce4 663e 0df8 d13d 1ceb 82be
00000110: 61b9 593e 6cad 4abd 5a4f bc3d 8e30 0ebe
00000120: 7323 7d3e 95cd bbbd e96c 6a3e 8fb1 88bd
00000130: ed76 783d 3062 4a3e da70 253e b8ff 933d
00000140: e1d8 02be a356 65be b1a0 77bd 32c7 753e
00000150: a287 073e 2000 0e3d 069b 393e 09f6 a93d
00000160: 0df7 b53d 9094 9cbd ef52 153c 7765 713e
00000170: 0ffe c63d a260 6e3d 6c9f 40be 0540 52be
00000180: 3f3f 963d 75c7 d5bd 8535 a63d 3a8f 6f3d
00000190: 20f0 043b 0b52 ec3d c0af f83d 950c 0e3e
000001a0: 616f 733e a470 92bd 1965 2b3e b391 6c3c
000001b0: 5ac8 273e 8ce0 df3d 504d 9fbd 6c9b 06be
000001c0: 5eb3 40bd bcf2 1fbe 2a71 4d3e 5d38 e53d
000001d0: 792c 37be afa9 36be 521d 7b3d 1753 20be
000001e0: 57b0 c0bd 6f5e 683e af22 0f3d 6028 213d
000001f0: 1fbe 0f3d fec7 7b3e a9ae 31be 1e7a 4bbd
00000200: fa25 45be ba32 fdbd f02c febd 568a 623d
00000210: d1ae 3dbe 4c7f 6ebd 0075 a5bd 87ee 903e
00000220: 5ccd cfbe 6b1e 1d3e 1c4b 82be c117 24bc
00000230: 85f8 40be 6202 f0bb 6ebe 2fbe d880 183c
00000240: 9eb1 943d 5b6b a03d d9c2 de3d e33c 3cbe
00000250: ec7c 2bbe 8bc1 0dbe a8f8 1cbe 78eb 78be
00000260: 912a aabd 2507 133e 8649 79bc 6658 0abe
00000270: 14ed 86be e764 d1bd ca5a ed3d 11f8 0f3e
00000280: c97d ff3c de7b 493e e296 42be e2bb 05be
00000290: aa95 27be 14f1 ffbc b42d b2bd 7d7d 0abe
000002a0: bf94 78bd 8b07 083e 4b54 a6be 9412 943d
000002b0: c3d9 64be 569e 09be 56bb 3c3e 74b9 123e
000002c0: d461 9cbe 5560 143e 9d1c f3bd f0e7 1ebe
000002d0: 7ec9 363e a729 2a3e 1039 01be c078 753e
000002e0: ca9d 133d a0fb 83bc c77b d0bd a215 b73d
000002f0: 3549 86be d6e1 43be f44e 4b3e f0d7 05bd
00000300: b99a 26be 7793 7dbc 026f 92bd e17c 913d
00000310: 7987 15be 5307 62bd e47f 033d 3d72 12be
00000320: 7a25 0fbe 7cab 17bd 6cd5 0dbe c8aa 75bd
00000330: 7bc0 18be f561 34bd b7f0 3bbd 1f34 debd
00000340: f797 82bd 68a7 90bd 5780 ffbd fd75 3bbd
00000350: 7dd3 6cbb b522 9dbc 5e70 83bd a48e 83bd
00000360: 385b 6ebd 0c82 d73d 9d22 d4bd 4949 d1bd
00000370: b492 9cbd 39bb 58bd bff7 a9bd 9d0e 8abd
00000380: ed54 d5bc b693 9bbd 5326 83bd b3dc bf3d
00000390: 6e2c 4abc 53fa 0cbd 0722 2ebc b048 f4b9
000003a0: 5488 773d ab2c ebbd 2ebd 4dbd 94f5 1dbe
000003b0: 2c38 88bd 4c91 96bd 8fb7 16bc 0ecb 12be
000003c0: 550c 2dbd 4f0d e3bd 5938 9bbd a6df 05be
000003d0: 7aca fcbd d595 d3bd 0ef7 e6ba d3e4 05be
000003e0: 3cd9 283c fdda 16be 6543 8fbd a56c 7d3c
000003f0: 707b 4abd 3dbe dfbc a74a 0cbd c762 3ebd
-0.08854199 -0.18549608 -0.042930387 0.17493474 -0.23785335 0.056236196 -0.04425143 0.29039487
-0.22763403 0.1908141 -0.10785505 0.030445239 -0.26050344 -0.067373045 -0.03540365 -0.08190643
0.017171765 0.07720879 0.0025797612 -0.050909884 -0.123547636 0.009870701 -0.18555994 -0.271215
-0.111411594 0.13801304 0.023020979 -0.04517779 -0.18683448 -0.07510808 0.16703843 0.18854548
-0.10872695 0.21927224 -0.00071895216 -0.038685035 -0.16590989 0.050531197 -0.14891623 0.056186393
-0.14751089 -0.0041103587 -0.13743931 -0.011987139 0.10122002 -0.03968804 0.04984664 0.106381245
0.034774035 -0.0604276 -0.013762107 -0.06767189 0.09574442 0.2310892 -0.06863981 0.095825344
0.20159902 -0.09336289 -0.083271846 0.06806557 -0.20357008 -0.11101893 0.061091684 0.22078054
0.15376085 0.22548145 0.1025239 -0.2557 0.21262123 -0.049481794 0.091948226 -0.1388571
0.24720554 -0.09170071 0.22893108 -0.066744916 0.06066029 0.19764018 0.1615633 0.07226509
-0.12778045 -0.2239633 -0.06045598 0.24001768 0.13235334 0.034668088 0.18125543 0.082988806
0.08885012 -0.076455235 0.009114011 0.23573862 0.097164266 0.058197625 -0.18810815 -0.20532234
0.07336282 -0.10438434 0.08115677 0.0584862 0.0020284727 0.11539086 0.12142897 0.13871987
0.23772956 -0.07150391 0.16737784 0.014439034 0.16385022 0.10931501 -0.07778418 -0.13145226
-0.047046058 -0.1561994 0.200627 0.11192391 -0.17888059 -0.17838167 0.06130726 -0.15656696
-0.09408634 0.22692274 0.034945186 0.039345145 0.035093423 0.2458801 -0.17351784 -0.049677007
-0.19252768 -0.12363191 -0.12410915 0.05530771 -0.18523718 -0.05822687 -0.080789566 0.28306982
-0.40586364 0.15343635 -0.2544793 -0.010015429 -0.18844803 -0.007324503 -0.17162487 0.0093080625
0.0726044 0.078329764 0.10877008 -0.18382601 -0.16746873 -0.13843362 -0.1532923 -0.24308574
-0.083089 0.14358194 -0.015215283 -0.13510284 -0.2635275 -0.10224324 0.11589582 0.14059474
0.031187909 0.19676158 -0.1900287 -0.13059953 -0.16365686 -0.031242885 -0.087001234 -0.13524432
-0.06068873 0.13284127 -0.32486185 0.07230106 -0.22348695 -0.13439307 0.18430838 0.14328557
-0.30543387 0.14489873 -0.11870692 -0.15518165 0.178503 0.16617452 -0.12619424 0.23971844
0.03603915 -0.016111195 -0.10179859 0.08939673 -0.26227728 -0.19129118 0.19854337 -0.032676637
-0.1626996 -0.015477053 -0.07150079 0.07103897 -0.1460246 -0.055182766 0.032104388 -0.14301391
-0.1397914 -0.037028775 -0.13850945 -0.059977323 -0.14917175 -0.04403873 -0.04588386 -0.10849785
-0.06376641 -0.0706318 -0.12475651 -0.04576682 -0.00361368 -0.019181589 -0.06417917 -0.06423691
-0.05819246 0.10522851 -0.103581645 -0.10219056 -0.07645169 -0.052912924 -0.08299207 -0.067410685
-0.026041472 -0.07596533 -0.06403794 0.09368267 -0.012339694 -0.034418415 -0.01062823 -0.00046593463
0.060432747 -0.11483129 -0.050229244 -0.15425712 -0.06651339 -0.07351932 -0.009199037 -0.14335272
-0.04224809 -0.11086523 -0.07579107 -0.13073596 -0.12343307 -0.103313126 -0.0017621235 -0.13075571
0.010305699 -0.14731975 -0.06995276 0.015467797 -0.049434125 -0.027312392 -0.03425088 -0.04648092

fc2.bias f4 [32]
00000000: 9e50 5abc dc94 203e bdae 9e3a 743d d33a
00000010: b279 04be 15c0 a33e 885a 99bc 8041 1bbd
00000020: 6422 fcbc 21c8 283e 3182 15be 3b2f 623e
00000030: e0ba 1abe 4038 b13e 45cf 4d3d 288f 613e
00000040: ee78 47bc bead 96bd 0bc7 433e 9c08 853e
00000050: 68a1 303e 581c 453e 6a00 493e 1c93 ca3c
00000060: 310a 6e3d 088f 24be f911 f23b 5d80 6c3e
00000070: f948 233e a22f 603e f2b4 4a3e 4e7a ba3e
-0.013324885 0.15681785 0.001210652 0.0016116337 -0.12937048 0.31982484 -0.018719926 -0.037904263
-0.030778117 0.16482593 -0.14600445 0.2208833 -0.1511035 0.34613228 0.050246496 0.22027266
-0.012174828 -0.073573574 0.19118898 0.2598313 0.17249072 0.19249094 0.19629064 0.02472835
0.058115188 -0.16070187 0.0073873964 0.23095842 0.15945806 0.2189317 0.19795588 0.36421436

fc3.weight f4 [1, 32]
00000000: 3a79 a83e 1444 cdbe 2319 863e 3ecf 3d3d
00000010: bdde c03e c199 ebbe ec8f 6e3e 542d 823e
00000020: 5709 873e f914 c6be e639 cc3e c0a4 a7be
00000030: 00b4 983e a5f0 bbbe e2bc 6e3e 88b2 c9be
00000040: cf1a 843e 447c 6a3e 7797 b7be 93e5 9fbe
00000050: b25e cdbe 86b4 c6be 1406 bfbe 8e6c 883e
00000060: 430f 5f3e 1d9a ab3e 982b a23e c798 c2be
00000070: 1a07 a4be 225c cfbe b710 cbbe e409 8cbe
0.3290499 -0.40091002 0.26191053 0.04634022 0.37669936 -0.46015742 0.2329709 0.25425208
0.26374313 -0.38687876 0.39887923 -0.32742882 0.2982483 -0.36707035 0.2331424 -0.3939402
0.25801703 0.22898966 -0.35857746 -0.3122984 -0.4011131 -0.38809603 -0.37309325 0.2664532
0.21783166 0.33516017 0.31673884 -0.38007185 -0.32036668 -0.4049998 -0.3966119 -0.27351296
