best_ann_model.pth (torch, 19406 bytes, 5 tensors)

fc1.weight f4 [64, 31]
0	0x3e0895ee	0.13338444
1	0x3d79924d	0.06093054
2	0x3ccaa363	0.024736112
3	0xbe5dbbf8	-0.21653736
4	0x3e30e8f2	0.17276362
5	0x3e1108a9	0.1416346
6	0x3c541500	0.01294446
7	0x3d02e761	0.03195894
8	0x3de44b98	0.11147231
9	0x3d76b1c9	0.060228143
10	0x3de2f129	0.11081154
11	0xbe3f76ba	-0.18697634
12	0x3df485d1	0.11939586
13	0x3f003063	0.5007383
14	0x3ed52f5a	0.4163769
15	0xbe2412b7	-0.16022764
16	0xbe350e2e	-0.1768119
17	0x3dcef900	0.10106087
18	0xbe31eabf	-0.17374705
19	0x3db8dcf1	0.09026516
20	0xbf0905da	-0.53524554
21	0xbd8b8b02	-0.06813623
22	0xbcea2f01	-0.028586866
23	0xbdfaf6b1	-0.12254084
24	0x3e7efc93	0.24901037
25	0x3e947f0c	0.2900318
26	0x3ef15a65	0.47139278
27	0x3db68ee9	0.08913977
28	0xbe7192e4	-0.2359119
29	0xbda1b8b0	-0.078965545
30	0xbe7390bf	-0.23785685
31	0x3d9719ba	0.07377954
32	0x3e18c651	0.14919402
33	0xbe46003c	-0.19336027
34	0xbdcb203e	-0.09918259
35	0xbe538a0e	-0.20658132
36	0xbe8775d3	-0.2645708
37	0xbe31842e	-0.17335579
38	0xbc4d1dbd	-0.012519297
39	0x3e4fa29b	0.20276873
40	0xbd9ee6de	-0.07758878
41	0x3e5def88	0.21673405
42	0x3e2a0851	0.16604735
43	0x3d9cc6fa	0.07655139
44	0x3eb8e978	0.36115623
45	0x3e3f0c4f	0.18657039
46	0x3e793b7e	0.243391
47	0xbcb6ff8b	-0.02233865
48	0xbe1d7f30	-0.1538055
49	0xbbdb45bc	-0.0066916626
50	0x3d7d2607	0.061803844
51	0xbf125db5	-0.57174236
52	0xbe56c03a	-0.20971766
53	0x3da9de56	0.0829436
54	0xbd90655b	-0.07050582
55	0xbea01804	-0.31268322
56	0x3e643733	0.22286682
57	0x3e45428d	0.19263668
58	0x3e0ef61c	0.13961071
59	0x3da2271e	0.07917617
60	0xbe59925e	-0.21247241
61	0xbe7e7f2f	-0.24853204
62	0x3c6be24a	0.014397213
63	0xbe8407e6	-0.25787276
64	0xbc39c0e6	-0.0113374945
65	0xbc056f7e	-0.008144258
66	0xbe947791	-0.28997472
67	0xbd4f8abd	-0.05066942
68	0x3d299625	0.041402955
69	0xbd53320c	-0.0515614
70	0xbd9c9aa0	-0.0764668
71	0xbdf1406d	-0.11779866
72	0xbc3ffac4	-0.011717502
73	0xbd6cc43f	-0.057804342
74	0x3d9280ee	0.07153498
75	0xbefe1c77	-0.49631092
76	0xbebff3b4	-0.37490618
77	0x3dd4d726	0.10392599
78	0x3e26cd39	0.16289224
79	0x3d096e79	0.03355262
80	0x3d80ab96	0.062827274
81	0x3dc31d0a	0.09527023
82	0x3ef13d50	0.4711709
83	0x3d7bc810	0.06147009
84	0x3d19525c	0.03743206
85	0x3e4d1fc1	0.20031644
86	0xbf03d3fc	-0.5149534
87	0x3cb3fb53	0.021970427
88	0xbd1e33f5	-0.03862377
89	0xbd0d76f5	-0.034537274
90	0xbd160762	-0.036628135
91	0xbdc2d036	-0.09512369
92	0x3d632c22	0.05546201
93	0xbef34139	-0.47510698
94	0xbe0fb453	-0.14033632
95	0xbd8f111c	-0.06985685
96	0xbc9c8bc2	-0.01910961
97	0xbb992ce2	-0.00467454
98	0xbcef3d11	-0.029203923
99	0x3d94d55e	0.07267259
100	0xbe02771d	-0.1274075
101	0x3d845a13	0.06462493
102	0xbd4edc47	-0.05050304
103	0xbc3e8150	-0.01162751
104	0xbdf839ca	-0.121203974
105	0x3cc0972e	0.023509588
106	0x3f0322ba	0.51224864
107	0x3d640a2b	0.05567376
108	0x3e04b3cd	0.12959214
109	0xbe987cbd	-0.29782668
110	0xbc8f720c	-0.017510436
111	0x3dc6e077	0.09710782
112	0x3cb4919f	0.022042094
113	0xbeb4143d	-0.3517169
114	0x3d4cbcf3	0.049984884
115	0x3e4d081c	0.20022625
116	0xbe096466	-0.13417205
117	0x3e80d00c	0.25158727
118	0xbdfa1aa5	-0.12212113
119	0x3e366926	0.17813548
120	0xbc3b5358	-0.011433445
121	0xbea7091f	-0.32624146
122	0x3dd19cb3	0.10234966
123	0x3dba0413	0.09082808
124	0xbee5a679	-0.4485357
125	0x3e2beff4	0.16790754
126	0x3e218bf2	0.15776041
127	0xbde92750	-0.113844514
128	0x3d0eee1b	0.034895044
129	0x3c881403	0.016611105
130	0x3c63f73e	0.013913928
131	0xbe37f665	-0.17965086
132	0x3cde0461	0.027101697
133	0xbd8215c6	-0.06351809
134	0x3d247e50	0.040159523
135	0xbc685427	-0.01418022
136	0xbc7db7d2	-0.015485721
137	0x3e274a1e	0.16336867
138	0x3ec4938a	0.38393813
139	0x3d3e4c74	0.04645963
140	0xbe4c987c	-0.19980043
141	0x3d83ec27	0.06441527
142	0xbe37de89	-0.17955984
143	0x3d2ff19d	0.04295503
144	0xbec878a8	-0.39154553
145	0x3cb2efef	0.021842925
146	0x3d2737f6	0.040824853
147	0xbe7e55d7	-0.24837433
148	0x3eb0a424	0.3450023
149	0x3e448dd2	0.19194725
150	0x3e60fc8a	0.21971336
151	0x3e4bf651	0.19918181
152	0xbed01e3c	-0.40648067
153	0x3d67a34d	0.05655222
154	0xbdd885f2	-0.10572423
155	0xbdf3f54a	-0.119120196
156	0x3de029c4	0.10945466
157	0xbc8fc6f8	-0.01755093
158	0xbd8de096	-0.06927602
159	0x3d5c05d8	0.05371651
160	0xbe835f4c	-0.25658643
161	0xbe32323b	-0.17401974
162	0xbd8b9d70	-0.06817138
163	0x3e0091c0	0.12555599
164	0x3d764845	0.060127515
165	0x3e821f85	0.25414672
166	0x3e1727d7	0.14761291
167	0xbde69068	-0.11258012
168	0x3ee26b9b	0.4422272
169	0x3e093979	0.1340083
170	0x3ea77fab	0.3271459
171	0x3e3edd65	0.18639143
172	0x3d5339b0	0.051568687
173	0x3e0177fc	0.12643427
174	0xbdf630ae	-0.12021004
175	0xbe5f395e	-0.21799228
176	0x3c9005be	0.017580863
177	0x3d95b098	0.07309073
178	0x3d801845	0.06254629
179	0x399e1ee0	0.00030159112
180	0xbc8aee01	-0.016959192
181	0x3ebe80cf	0.37207648
182	0xbcf09bfb	-0.029371252
183	0x3e8fadbf	0.28062245
184	0xbe9c0567	-0.30472872
185	0xbe317ff0	-0.1733396
186	0x3d3617dc	0.044456348
187	0xbe60a9da	-0.21939793
188	0x3bc33737	0.00595751
189	0x3d55ff1d	0.052245248
190	0xbd6e24c7	-0.058140542
191	0xbce011ad	-0.027352178
192	0x3b965543	0.0045878007
193	0xbc34ff97	-0.0110472655
194	0xbdb82ee0	-0.08993316
195	0x3bc7285e	0.00607781
196	0xbd096ca1	-0.033550862
197	0xbc5f0238	-0.013611369
198	0x3ca71d94	0.020399846
199	0xbea1e327	-0.31618616
200	0xbf0130d0	-0.50465107
201	0x3bfcd79a	0.0077161314
202	0x3d395c21	0.045253877
203	0xb9a2cc56	-0.0003105129
204	0x3d310e49	0.043226514
205	0xbcc8753c	-0.024469964
206	0x3ed5856c	0.41703355
207	0xbd2d2f5b	-0.04228149
208	0xbd6ee625	-0.05832495
209	0x3e25559b	0.16145937
210	0xbec35e15	-0.38157716
211	0xbe9a8b44	-0.30184376
212	0xbe939edb	-0.28832135
213	0x3dd34211	0.103153355
214	0xbe29fdce	-0.16600725
215	0x3b6e84db	0.0036395106
216	0x3d843fce	0.06457482
217	0xbe73ce0f	-0.23809074
218	0x3d945d18	0.07244319
219	0x3c2268bc	0.009912666
220	0xbe7fe7a0	-0.24990702
221	0x3e1c6c33	0.1527565
222	0x3e0e3590	0.1388762
223	0xbdea8cce	-0.114526376
224	0xbe46ea01	-0.19425203
225	0xbe0bf4bb	-0.13667576
226	0x3e05eaf2	0.13077906
227	0xbe050d12	-0.12993267
228	0x3e8eeb52	0.2791391
229	0xbe3ccd83	-0.18437771
230	0x3e89c834	0.26910555
231	0x3e26189d	0.16220327
232	0x3e102087	0.14074908
233	0xbd9e445a	-0.07727881
234	0x3dad512e	0.084627494
235	0x3e563e19	0.20922126
236	0xbd4a8f8c	-0.049453303
237	0xbe9f2695	-0.31084123
238	0x3ca0b9f6	0.019619923
239	0x3e07e421	0.13270618
240	0xbe1bb4d3	-0.15205698
241	0x3e47015b	0.19434111
242	0x3d863343	0.06552746
243	0x3d22dd22	0.03976167
244	0xbe3199bb	-0.173438
245	0xbda434dd	-0.08017895
246	0x3de8a1b6	0.11358969
247	0xbd851f75	-0.065001406
248	0x3e500742	0.20315269
249	0x3e9eaf28	0.3099301
250	0x3e58e3e8	0.2118069
251	0xbe022f74	-0.12713414
252	0x3d830247	0.06396919
253	0x3d30f68e	0.043203883
254	0x3d18d3ee	0.037311487
255	0xbe05115c	-0.12994903

fc1.bias f4 [64]
0	0x3d712567	0.05887356
1	0xbdcbf964	-0.09959677
2	0xbebd1403	-0.3692933
3	0x3ca2b7f5	0.019863108
4	0x3dfd7ba1	0.12377096
5	0x3e076a8f	0.13224243
6	0xbf0860a2	-0.5327245
7	0xbcda9cb9	-0.02668606
8	0x3e0e2389	0.13880743
9	0x3ebd2a79	0.36946467
10	0x3eb7394f	0.3578591
11	0x3b8e4a74	0.0043423716
12	0xbf27a63a	-0.65488017
13	0x3f095d38	0.53657866
14	0xbf179db3	-0.59225005
15	0x3ece2cf4	0.40268672
16	0x3e2aeec5	0.16692646
17	0xbf1545ad	-0.5830944
18	0x3ea1e2d5	0.31618372
19	0x3e36f1f0	0.1786573
20	0x3e769674	0.24080831
21	0x3e5940c3	0.21216111
22	0x3efb7328	0.49111295
23	0x3e331ffb	0.17492668
24	0x3ed0a19c	0.40748298
25	0x3d8d1f24	0.06890705
26	0xbf03f062	-0.5153867
27	0x3e9563bb	0.2917765
28	0x3e8b19f6	0.27168244
29	0x3ea6aede	0.32555288
30	0xbf08e4c3	-0.5347406
31	0x3edc6f4f	0.43053672
32	0xbf09bd4b	-0.53804463
33	0x3d0ec728	0.0348579
34	0x3e403872	0.18771532
35	0x3f10de6b	0.5658938
36	0x3dbf76e4	0.093488485
37	0x3e5b5095	0.21417458
38	0x3e82e247	0.2556326
39	0xbf097127	-0.5368828
40	0xbf205611	-0.62631327
41	0x3ed579cb	0.41694483
42	0xbf065729	-0.52476746
43	0xbf2279da	-0.6346718
44	0x3de7ab58	0.11311978
45	0x3e0478c6	0.12936696
46	0xbf0ac0bd	-0.54200345
47	0xbe44b607	-0.19210063
48	0xbf1db273	-0.61600417
49	0xbf16f399	-0.5896545
50	0xbeb58a4f	-0.35457084
51	0x3eb083b4	0.34475482
52	0x3f04c13b	0.51857346
53	0xbf098716	-0.5372175
54	0x3e113a5d	0.1418242
55	0x3ee718ed	0.45136204
56	0xbed7a709	-0.42119625
57	0x3eceac2e	0.40365738
58	0x3ec75eb4	0.3893944
59	0x3e8f2c93	0.27963695
60	0x3eea7be0	0.45797634
61	0x3ec93d49	0.3930457
62	0x3e30b9ba	0.17258349
63	0x3ed5809c	0.41699684

fc2.weight f4 [32, 64]
0	0xbde821d7	-0.113345794
1	0xbe1bff6a	-0.15234151
2	0x3ea8b003	0.32946786
3	0xbd83ad90	-0.06429589
4	0xbe3192ef	-0.17341207
5	0xbc31ee9c	-0.010860112
6	0x3da3c519	0.07996578
7	0xbe60ec13	-0.21965055
8	0xbe8bc424	-0.2729808
9	0xbcf560d5	-0.0299534
10	0xbe37eda9	-0.17961754
11	0xbe3039db	-0.1720957
12	0x3e1e7515	0.15474351
13	0xbe43763a	-0.19088069
14	0x3e9892d6	0.29799527
15	0xbdc923e3	-0.09821298
16	0x3d4aeea7	0.049544003
17	0x3dfff61a	0.12498112
18	0xbe9fd7d6	-0.31219357
19	0xbdf7b698	-0.12095374
20	0xbe9346cc	-0.2876495
21	0xbc24b47a	-0.010052795
22	0xbe926d67	-0.28599092
23	0xbea50c5b	-0.3223599
24	0xbe2505eb	-0.16115539
25	0xbe39c41a	-0.18141213
26	0xbbdd493c	-0.006753115
27	0x3d147398	0.03624305
28	0xbe91f84f	-0.28509757
29	0xbe08988c	-0.13339442
30	0xbca9a597	-0.020708842
31	0x3ba55aab	0.005046209
32	0x3d1a5c40	0.037685633
33	0xbe2b58c2	-0.16733077
34	0xbeb29b16	-0.34883946
35	0xbe1d4ca2	-0.15361264
36	0xbeb62f7c	-0.35583103
37	0xbd0d144a	-0.034443177
38	0xbca1f9d6	-0.019772451
39	0x3e226a78	0.15860927
40	0x3eb76590	0.35819674
41	0xbe126805	-0.14297493
42	0xbcf8f043	-0.030388003
43	0x3eb212bd	0.3477992
44	0xbdaaaba6	-0.083335206
45	0xbe3c7b93	-0.18406515
46	0x3e44a37c	0.1920299
47	0xbe15e49d	-0.1463799
48	0x3d0d0149	0.034425054
49	0x3d92750f	0.071512334
50	0xbd39a254	-0.045320824
51	0xbe93ee47	-0.2889273
52	0xbdf77f1c	-0.12084791
53	0x3d72d86a	0.05928842
54	0xbef05618	-0.46940684
55	0xbded8154	-0.11596933
56	0x3e142459	0.1446699
57	0xbe0920fe	-0.13391492
58	0xbe724043	-0.23657326
59	0xbe353186	-0.17694673
60	0xbe917fdd	-0.28417864
61	0xbedfb8eb	-0.4369577
62	0xbe31ec6d	-0.17375346
63	0xbe95a0af	-0.29224154
64	0x3e77ae60	0.24187613
65	0x3e93a60a	0.28837615
66	0xbe881cfa	-0.26584607
67	0x3dad626a	0.084660366
68	0x3d545b15	0.051844675
69	0x3e79e193	0.24402456
70	0xbeb5e470	-0.35525846
71	0xbce76b68	-0.028249457
72	0x3e99c7b8	0.30035186
73	0x3d9e70f7	0.0773639
74	0x3d909e1a	0.070614055
75	0x3e8bab23	0.27279004
76	0xbef80d3f	-0.48447606
77	0xbb3e2d6f	-0.002901878
78	0xbe258ae1	-0.1616626
79	0x3ecf5aca	0.40498954
80	0x3dc97968	0.098376095
81	0xbea61e89	-0.3244517
82	0x3e13b596	0.14424738
83	0xbc872484	-0.016496904
84	0x3e1251fe	0.1428909
85	0x3dd27cb3	0.10277691
86	0x3de2120b	0.11038598
87	0x3e21794d	0.15768929
88	0x3d8bac79	0.06820006
89	0x3e0ea6e4	0.13930851
90	0xbe9333b9	-0.287504
91	0xbceec59a	-0.029146958
92	0x3dd1f96c	0.102526516
93	0x3aa39e65	0.0012483118
94	0xbe196b58	-0.14982355
95	0x3e34ea11	0.17667414
96	0xbea1ca26	-0.3159954
97	0x3db49aca	0.08818586
98	0x3dd8fd65	0.10595206
99	0xba6ce1ec	-0.00090363505
100	0x3d529171	0.051408235
101	0x3d854b20	0.065084696
102	0x3e6e9949	0.23300661
103	0xbdc8560c	-0.09782037
104	0xbea3165f	-0.31853005
105	0x3e1de8db	0.15420859
106	0xbe738ede	-0.23784968
107	0xbeb4688b	-0.3523601
108	0x3db91d2a	0.09038766
109	0x3e7624de	0.24037501
110	0xbe2d85f8	-0.16945636
111	0xbe3ff795	-0.18746789
112	0xbe6dd0ee	-0.23224232
113	0xbe6df462	-0.23237756
114	0xbe0c4620	-0.13698626
115	0x3e98af33	0.29821166
116	0x3e6d752b	0.23189227
117	0xbea7f18a	-0.32801467
118	0x3ea8b47e	0.32950205
119	0x3dc44314	0.09583107
120	0xbe473da2	-0.19457105
121	0x3e4f52fa	0.20246497
122	0x3e8aba77	0.27095386
123	0x3e903186	0.28162783
124	0x3e6f6931	0.23379971
125	0x3c8278cf	0.015926747
126	0x3d54a7df	0.051917907
127	0x3e4c871a	0.19973412
128	0x3c5b41dc	0.013382401
129	0xbdc49e65	-0.09600524
130	0x3e180650	0.14846158
131	0xbdba64be	-0.09101246
132	0xbe91b4f5	-0.28458372
133	0x3c38fb78	0.011290424
134	0x3e253bcf	0.16136096
135	0xbe0673a8	-0.13130057
136	0xbe7a872b	-0.24465625
137	0xbdbf4604	-0.09339526
138	0xbd8adf5d	-0.067808844
139	0xbe28d773	-0.16488437
140	0x3e39e21d	0.18152662
141	0xbe700c7e	-0.23442265
142	0x3d908afd	0.0705776
143	0xbd3c4146	-0.045960687
144	0xbe2efc2e	-0.17088386
145	0xbcacb684	-0.021083124
146	0xbe10c182	-0.14136317
147	0xbde690b8	-0.11258072
148	0xbe4afd37	-0.19823156
149	0xbd9515f1	-0.072795756
150	0xbe32853c	-0.17433637
151	0xbd8e6442	-0.069527164
152	0xbe973e5c	-0.29539764
153	0xbe70db8e	-0.23521253
154	0x3d98f475	0.074685015
155	0x3c89c925	0.016819546
156	0xbde762ef	-0.11298167
157	0xbdaab331	-0.08334959
158	0x3e1d55b7	0.15364729
159	0xbe8f2294	-0.2795607
160	0x3d44d35c	0.04805313
161	0xbe5b972f	-0.2144439
162	0xbe9df914	-0.30854094
163	0xbe5d0f4e	-0.2158787
164	0xbe8d5c79	-0.27609614
165	0xbe215957	-0.15756737
166	0xbe2bb8a5	-0.16769655
167	0x3d04514f	0.032304104
168	0x3e3ec957	0.18631493
169	0xbe01af53	-0.12664537
170	0x3e208a4b	0.15677755
171	0x3e9e0408	0.3086245
172	0xbe8d7e7e	-0.27635568
173	0xbe5eb861	-0.21750022
174	0x3ea8202d	0.32837048
175	0x3d942abb	0.07234713
176	0x3e519c8c	0.20469874
177	0x3de26be3	0.11055734
178	0x3df31685	0.1186953
179	0xbe8b8c6b	-0.27255568
180	0xbe0b938e	-0.13630506
181	0x3de94fee	0.113921985
182	0xbec83f2b	-0.39110693
183	0xbdf8896e	-0.12135588
184	0x3d0ad7c9	0.033897195
185	0xbdb9753a	-0.09055562
186	0xbe1b276c	-0.15151757
187	0xbe882030	-0.26587057
188	0xbe9c5bd5	-0.30538812
189	0xbecd45b0	-0.4009223
190	0xbcdb85b9	-0.026797162
191	0xbeb1b519	-0.3470848
192	0x3d634a27	0.05549064
193	0xbe4946e8	-0.19655955
194	0x3dab2ecf	0.083585374
195	0xbacefe79	-0.0015792391
196	0xbe6a1bf7	-0.2286223
197	0xbd323db6	-0.043515883
198	0x3e5fe03e	0.21862885
199	0xbe892d2b	-0.26792273
200	0xbe71c512	-0.23610333
201	0xbe961702	-0.2931443
202	0xbe0b4e4c	-0.13604087
203	0xbe016cfa	-0.12639228
204	0x3e45ea0b	0.19327562
205	0xbe69d8b9	-0.2283658
206	0x3e55eeaf	0.20891832
207	0xbe2147c5	-0.15750034
208	0xbe4553c0	-0.1927023
209	0x3da6a60c	0.0813714
210	0xbeb29e3d	-0.3488635
211	0xbd2f4047	-0.04278591
212	0xbe6e8eaf	-0.23296617
213	0xbd497c9f	-0.049191114
214	0xbe5480b5	-0.20752223
215	0xbeb1f0d3	-0.34754047
216	0xbdce6073	-0.1007699
217	0xbcc36203	-0.023850447
218	0x3da18459	0.078865714
219	0xbd8b1562	-0.06791188
220	0xbec11c79	-0.37717035
221	0xbea315f9	-0.318527
222	0x3d44e6e9	0.048071776
223	0xbeb3ec45	-0.35141197
224	0x3dab226c	0.08356175
225	0xbe1ab353	-0.1510747
226	0xbe4ee92e	-0.20206138
227	0xbe9d0ad7	-0.30672333
228	0xbd81e9ed	-0.06343446
229	0xbeb9bdec	-0.3627771
230	0xbdf233b6	-0.11826269
231	0x3e3740d6	0.17895827
232	0xbc9d79c0	-0.019223094
233	0xbea54295	-0.3227736
234	0xbac63409	-0.0015121709
235	0x3e1e2be0	0.15446424
236	0xbe3ad024	-0.18243462
237	0xbd3ea22c	-0.046541378
238	0x3e60365a	0.21895733
239	0xbcd00947	-0.025395049
240	0x3e512833	0.20425491
241	0x3e2ac988	0.1667844
242	0xbcfd175f	-0.030894933
243	0xbea05994	-0.31318343
244	0xbe584ac9	-0.21122278
245	0x3e34ae21	0.1764455
246	0xbe7c2b71	-0.24625947
247	0xbec1f8df	-0.37885186
248	0x3e5434a4	0.20723206
249	0xbe3eb0bb	-0.18622105
250	0xbe3781cf	-0.17920612
251	0xbe9ed2a7	-0.3102009
252	0xbe413307	-0.18867122
253	0xbeb62223	-0.3557292
254	0xbe17847d	-0.14796634
255	0xbef2764e	-0.47355884

fc2.bias f4 [32]
0	0x3d80a59d	0.06281588
1	0x3e1b25b0	0.15151095
2	0x3dc994f1	0.098428614
3	0x3da427ed	0.08015428
4	0x3a8237ec	0.0009934879
5	0x3e1ed430	0.1551063
6	0x3dcea098	0.100892246
7	0x3dcbdc3f	0.09954118
8	0x3d6265e7	0.055272963
9	0x3d8cfb98	0.06883925
10	0x3dee784a	0.11644037
11	0x3e1eaa9f	0.15494774
12	0x3db823bd	0.089911915
13	0x3e379a08	0.17929852
14	0x3e13d521	0.14436771
15	0x3e0fab04	0.14030081
16	0x3dc4d830	0.09611547
17	0x3d011d76	0.031522237
18	0x3cd76533	0.026293373
19	0x3defdd02	0.11712076
20	0x3dd28a39	0.1028027
21	0x3e3f9aa8	0.1871134
22	0x3d055dad	0.03256004
23	0x3dd667df	0.104690306
24	0x3e33f05b	0.17572157
25	0x3e4bf6cb	0.19918363
26	0x3dee8e18	0.11648196
27	0x3e4f3c13	0.2023776
28	0x3e08427b	0.1330661
29	0x3da9e9d1	0.0829655
30	0x3dd79d3b	0.10528036
31	0x3dd2811c	0.10278532

fc3.weight f4 [1, 32]
0	0x3ef7a8e9	0.48371056
1	0xbf129287	-0.57254833
2	0x3ed07f95	0.40722337
3	0x3ed3748d	0.4129986
4	0x3ed2b13a	0.41150838
5	0xbec0c9ba	-0.37653905
6	0xbe63d85b	-0.22250502
7	0xbe597593	-0.21236257
8	0x3f14e120	0.58156013
9	0x3eb712f0	0.35756636
10	0xbe8b9ee8	-0.27269673
11	0xbe5c7da0	-0.21532297
12	0xbe97b85b	-0.2963284
13	0x3ed5d150	0.41761255
14	0xbf263ca0	-0.64936256
15	0xbec20f92	-0.37902504
16	0xbe7eea5d	-0.2489409
17	0x3ed88802	0.42291266
18	0x3f047829	0.5174585
19	0xbea57019	-0.32312086
20	0x3f102bd7	0.56316894
21	0xbe99d563	-0.30045614
22	0x3ed017fd	0.40643302
23	0x3efb5797	0.49090263
24	0xbebd6fbc	-0.3699931
25	0xbf14649c	-0.5796602
26	0x3ed813d1	0.4220262
27	0xbf0e957d	-0.5569685
28	0xbed811d7	-0.4220111
29	0xbea5d894	-0.32391798
30	0xbebf8c50	-0.37411737
31	0xbeb5e0a7	-0.3552296
