best_ann_model.pth (torch, 19406 bytes, 5 tensors)

fc1.weight f4 [64, 31]
00000000: 6f89 f33c 0a43 24bc adbc d93c f5e1 603c
00000010: 21c4 fe3d 447a 243c df08 12bd a7f9 80bd
00000020: 684c f2bd a830 a43c ca60 723b 465c 7a3d
00000030: 937d f93c e1aa 85be efec 11be 53a6 d9ba
00000040: c2d2 6f3d 6a58 07be 352e b5bd f142 6abd
00000050: 7fa3 863e e6fb 56bd 6743 663d a64a 103e
00000060: 9c01 1bbe 8f59 12bf 65bd 46be f938 98bd
00000070: d4c7 8cbe c710 a3bd 7872 27bd 0a99 353d
00000080: e0cc e5bd a414 383e 28a1 af3d f7dc 01be
00000090: 7dc5 68bd a2fc 973d 957c 303d 2119 243b
000000a0: f7c2 b23b 782d 12bd bd2a 38bd dc5a 813d
000000b0: 0eef 1cbe 22fd b4bc 9aed 89bc 8a50 c53c
000000c0: f87e a63d 6c6b 8ebd 7792 8ebd 9c7c 973e
000000d0: 7577 e43c 27b7 d7bc eabf 87bd db08 52be
000000e0: 83d6 c0bd 6441 8a3d ed36 3fbe ba10 c93d
000000f0: 2949 85bd 8d6b a73c 8218 40be b191 9b3d
00000100: f3ec 073e 1c01 07be 33a8 133e 7562 77bd
00000110: 60ea d9bb a2cf 09bd 3f8e 303d fd75 043d
00000120: 9a4a cb3d 9fd1 43be 3870 e83c 3881 d43e
00000130: 162e b73e 27e3 e7bc a594 17be e137 c1bb
00000140: a447 bbbe 1dba 5e3d cbb1 abbe fc3f 39bd
00000150: 6149 06bd 9ff3 54be 85f9 b33e b80b 383e
00000160: 8c82 973e acf3 3a3d 7287 27bd ef21 843d
00000170: 2b91 8cbc ffff 953d 06a8 9d3d 8f9b d83d
00000180: 78d1 8dbc 0538 a43d f95a 45be 377e cabc
00000190: b00d 813a a57c 07be ac0d 15bd 852e 58be
000001a0: af02 59bd 1503 863c 4cb3 e03d dc52 e6bd
000001b0: 99cd 87bd c3d5 8c3d e23c 45be 570b b23c
000001c0: 94e8 1fbd e4d5 efbd cb46 a63d a2d6 f7bc
000001d0: 2c8b 1cbe 93d5 bf3e 6412 883e 82df 9a3d
000001e0: 8d6a 0cbd 2c54 87bd c5a5 a2bd 6e17 8fbe
000001f0: bb23 d9bd 9fa9 04be fd31 5a3c 9496 05be
00000200: ad89 a43c 71d2 10be 124a 6a3e cd18 2abe
00000210: d77c 82be 6c7e 663c 14e9 a43d 56c4 203d
00000220: d4c3 3fbe b2fb 21bb 4a2e f53e 99f3 61be
00000230: 6d76 eabd bee6 14bd f28b c23d b87d 8f3c
00000240: da36 a2be e2c3 813d 61df 9b3d 6d73 53bd
00000250: 00d2 0ebe a56b 47be be7e 3f3e 4e37 05be
00000260: 4034 adbd eeb6 a83c 2202 01be 7770 3b3c
00000270: dd74 d83d 9096 44be 669c 1dbd 0150 18bd
00000280: 2f01 343d 2c0b 103c 50a8 303d 2652 803c
00000290: 4965 32bd 81ac 6cbd 01b7 a33c 7cd5 8b3d
000002a0: e71c 1e3f f99b aa3e 3f8b 8bbd 4a4c 3dbe
000002b0: 8973 adbb 7a10 24bc a73b c238 3090 afbe
000002c0: 0eba d23d 9e74 7b3c 1286 86be 6c57 a23e
000002d0: 8fe7 d03d bc0c 523e ec6a 7e3d 4715 7d3d
000002e0: 1311 5d3c 91a6 0a3e d8d3 f53c 7e55 07be
000002f0: 230a 563d 3ce1 a2bc a2f8 bb3d c7a3 44bc
00000300: 8662 93bc dfda 17bd a704 a03d 69c8 bbbb
00000310: 20ae b1bd ea5d 4a3d 2c52 8f3d b339 c6bd
00000320: b2f6 f0bc 4edb 4e3d a8a6 a53d 9d6c af3c
00000330: d778 9fbb 7725 11be 9abe 823e a0d1 b0bc
00000340: e60c 32bd 4481 163e 5a96 81be 959f febe
00000350: 0292 5dbe 232b 7fbd 6340 c8bd 14db 1e3e
00000360: b206 bebd 4d86 d5be 68c3 b23c cddd debd
00000370: de14 58bd dd61 753d b863 1d3e fab7 aebd
00000380: 4a05 30bd eecc 8e3c 1717 753d 17d4 613c
00000390: 90e7 f93a 8892 9f3d 2663 ba3e 0c65 3e3e
000003a0: e3df e13d cdab d8bd 36da 953b d698 a03d
000003b0: 0053 9cbd 3271 d7be e7ca 9dbd 2fa8 88bd
000003c0: eeff 91be 08e9 203e 241c 343e 3606 a23e
000003d0: 7468 b7ba f4fe 42be a4f4 f23d 0c2e 9fbe
000003e0: 7959 9e3d f84f 8e3e 0010 41bd 5ee3 82bd
000003f0: 72cd b2bc 72c3 10bb 8d4e a6bc 8cf7 0c3d
0.02972862 -0.010025749 0.026579225 0.013725747 0.12439752 0.010038916 -0.03565299 -0.062976174
-0.118309796 0.020042732 0.003698396 0.061123155 0.030455386 -0.26106933 -0.14250539 -0.0016605355
0.058550604 -0.13217321 -0.08846704 -0.057192747 0.26296613 -0.052486323 0.056216624 0.14090976
-0.15137333 -0.57167906 -0.19408186 -0.07432742 -0.27496207 -0.079621844 -0.04088065 0.044335403
-0.112207174 0.17976624 0.0857566 -0.12681948 -0.056828965 0.07421233 0.04308756 0.0025039392
0.0054553705 -0.035687894 -0.044962633 0.06316158 -0.15325567 -0.02209336 -0.01683693 0.024086256
0.08129686 -0.06954083 -0.0696153 0.29587257 0.027888993 -0.026332451 -0.066284016 -0.2051119
-0.09415915 0.067507535 -0.18673296 0.098176435 -0.06508095 0.020437026 -0.18759349 0.07596148
0.13273983 -0.13184017 0.14419632 -0.06039663 -0.006650254 -0.03364528 0.043104406 0.032339085
0.099263385 -0.19122933 0.028373823 0.41504836 0.35777348 -0.028306557 -0.14802797 -0.005896554
-0.36578095 0.05437671 -0.33534083 -0.045227036 -0.032784823 -0.20796059 0.35151306 0.1797322
0.29591787 0.04564254 -0.040900655 0.06451785 -0.017159065 0.07324218 0.076980636 0.105765454
-0.017311797 0.080184974 -0.19272985 -0.024718387 0.0009845998 -0.13231142 -0.03638999 -0.21111496
-0.052981075 0.016358892 0.10971698 -0.11246273 -0.066310115 0.06876709 -0.19261506 0.021733923
-0.039040163 -0.11710718 0.081189714 -0.030253712 -0.15287465 0.37467632 0.2657653 0.07562162
-0.034281302 -0.066078514 -0.07941774 -0.27947563 -0.10602518 -0.1295533 0.013317582 -0.13045722
0.02008518 -0.14142777 0.22879818 -0.16611023 -0.2548587 0.014068227 0.080522686 0.03924974
-0.18727046 -0.0024716672 0.47886878 -0.22065581 -0.11448369 -0.036352865 0.09499349 0.017516002
-0.31682473 0.0633619 0.076109655 -0.05162375 -0.13947296 -0.19474657 0.18700692 -0.13009378
-0.084572315 0.02059504 -0.1259847 0.011440388 0.10569165 -0.1919806 -0.03847923 -0.037185673
0.04394644 0.008791726 0.043129265 0.015664171 -0.043553624 -0.0577817 0.019984724 0.06827828
0.6176285 0.33322123 -0.068136685 -0.18486133 -0.005293314 -0.010013694 9.261752e-05 -0.34289694
0.10289393 0.015347628 -0.26274163 0.31707323 0.10200416 0.2051267 0.062113687 0.06178787
0.01349284 0.13540103 0.030008242 -0.13216206 0.05225576 -0.01988279 0.09178282 -0.012001938
-0.017991316 -0.037073966 0.07813387 -0.005730678 -0.0867579 0.04940597 0.06998095 -0.09678974
-0.029414508 0.050502114 0.08088428 0.021414096 -0.0048667 -0.14174448 0.25536042 -0.021584332
-0.043469332 0.14697748 -0.25310022 -0.49731126 -0.21637729 -0.062296998 -0.09777906 0.15513259
-0.09278621 -0.41704026 0.021821693 -0.10882149 -0.052754276 0.059907783 0.15370071 -0.085311845
-0.042973794 0.017431702 0.059836473 0.013783476 0.0019066203 0.077916205 0.3640377 0.18593234
0.11029031 -0.105796434 0.004573132 0.07841651 -0.076330185 -0.4207855 -0.07704716 -0.066727035
-0.2851557 0.15713894 0.1758886 0.31645364 -0.0013992921 -0.1904257 0.11863068 -0.31089818
0.07731909 0.27795386 -0.0471344 -0.06391023 -0.02182648 -0.002208915 -0.020301128 0.034415767

fc1.bias f4 [64]
00000000: 1bf1 9cbe ca04 c7bd e4aa a93e 91b0 873e
00000010: 2010 663e aff3 b53e ad67 d1be 3e97 953d
00000020: 5adf c83e 76bd 903e 0d84 843e b103 a03e
00000030: e9ec 9c3e d4c6 ac3e 6a9f 5b3d 30df 7d3e
00000040: 9586 a23e d5fc a13e 2d28 9d3e 6026 143c
00000050: 2426 283e c5d9 0dbf 9631 0ebf 9f79 8f3e
00000060: 1d44 b1be 9d73 ac3e a474 923e ba81 e1be
00000070: 6b68 b4be 8922 4f3e 4a0e ae3e 0092 04bf
00000080: e42b 0dbe 7004 49bd 6ccd 27be d48c 10bf
00000090: c858 0a3e 4243 bebe cbf8 8a3e 7af2 bebe
000000a0: 2676 d03e 472f 9b3e 4ce0 50be bae0 923e
000000b0: a57a 6b3e 1d8a 3f3e 056d 5c3c 0265 363e
000000c0: 6494 4b3e f39a f5be 8a88 463e 3593 c33e
000000d0: 9672 09bf 5a9b ce3d 9765 c23e f30b f4be
000000e0: 2040 a63c 587b 94be 49de 583e c0fb f3be
000000f0: ba64 85be 80c7 ad3d 9f3f a23d cb59 55bd
-0.306527 -0.0971771 0.33138192 0.26501897 0.22467089 0.35537478 -0.4089941 0.07304238
0.39232904 0.28269547 0.25881997 0.31252816 0.30649498 0.33745444 0.053618826 0.2479217
0.31743303 0.31638208 0.30694714 0.009042352 0.164208 -0.55410415 -0.5554441 0.28022477
-0.3462228 0.33681956 0.28604615 -0.44044286 -0.35235915 0.20228018 0.33995277 -0.5178528
-0.13786274 -0.049076498 -0.16386956 -0.56464887 0.1351043 -0.3716069 0.2714294 -0.3729437
0.4071514 0.30309507 -0.20398062 0.28687078 0.22996004 0.1870503 0.013453727 0.17811969
0.19880825 -0.4796978 0.19388023 0.38198248 -0.5369047 0.10088225 0.37968132 -0.47665367
0.020294249 -0.29000354 0.21178545 -0.47653008 -0.2605341 0.08485317 0.07922291 -0.052087586

fc2.weight f4 [32, 64]
00000000: 1b29 b23d 89ab 073e 32e9 cdbd 4fae b3bd
00000010: 854c 5ebd 785a bdbd b269 063e 81b2 7fbd
00000020: b4af fa3c ef35 adbe a307 42be 69e4 75be
00000030: 7bcd f2bd e921 bbbd a3df 23be 7036 06be
00000040: fc60 09be 182b aebc 6995 acbd 8ce5 42bd
00000050: 2c68 8fbd 3eb4 793d b8f4 c33e e21e 8ebd
00000060: 6824 983e 6494 1dbe 1792 19be a0ed 703e
00000070: 64c1 02bd e789 00be 1a6c 98bd c9a0 b63d
00000080: e296 a9bd e31d 24bb 62b4 b7bd 4dd6 0f3e
00000090: 8abb d6bc 7aba 553e e98a 2cbd 862c c43d
000000a0: 1c1d 4bbe aa6c 283d 805b 253e 75ab 5abe
000000b0: 692a b5bd a15b d3bd 6605 7ebe e267 8fbe
000000c0: 7590 78be a699 a43d c631 b4bd d65e eb3c
000000d0: ea67 633d f83e bfbd ea7c a8bc 5375 6e3e
000000e0: 9582 13be 37e1 efbd e2de e5bd a2d7 503e
000000f0: dad0 2e3b 6b2d 7abe ebd2 44be 4390 cbbd
00000100: 2fcb 133e 96de d53d 8580 07be 9917 2f3d
00000110: 7ca5 f5bd e012 0d3c 419f 413d 99db ffbd
00000120: f416 f8bd 6eac 29be 593d 8fbd 0466 98be
00000130: 944b 083d f940 07be 492a 68be ff78 12be
00000140: cf0f dabd 278b f5bc 5d26 21be 9774 8fbe
00000150: 9bd1 11be d730 f23d 753b fbba 60bf 96be
00000160: e192 023e 3e53 13be 5ebc 97be 5991 e23d
00000170: 237f 233e 85e1 89be 5a34 81be 53b4 453e
00000180: 9f55 f4bb b786 99bc a9a7 3e3d 6998 3e3e
00000190: aabd 42bd 53f4 95bc a7f6 20be fb92 0c3b
000001a0: ed31 72be a468 343d bdcc d63d 8acc d2bc
000001b0: 4dc6 45be 86dd 0fbe 2078 f1bd 7089 47be
000001c0: dbde 86bd 6770 b83d 255a 1bbe ac3a 4cbe
000001d0: ad2c db3d 779f 4bbe ff3a 58bc 7bc8 513e
000001e0: 2f15 f5bd 9e76 c83d fef3 01be 6d0d 533c
000001f0: 5d74 36be a9a2 82be 8e11 b6bd 7b15 3dbe
00000200: de9d 35bc 54b8 033d 0135 173e f4d9 bc3d
00000210: 09c8 e83d da9d 6e3e 2d86 f6bc b24f 1f3e
00000220: 708f 403e d570 c73e 8411 793e 8568 c83e
00000230: abb2 ab3d 5c66 0e3e 26de 573e 279f b93c
00000240: bdb0 cf3d 7e47 613e ccac 203e 226e 853d
00000250: 5b09 293e a103 98be 7ae7 00be fed2 793e
00000260: 02b5 a1bd a057 7b3e 9356 753e f275 62be
00000270: 34d4 cebd a997 153e 2b9e 083e 5dd7 89bd
00000280: c0c1 b0bd fcb4 f53a ad00 c13c e115 21be
00000290: 5789 743d c872 53be 4a6f 1a3e 9b5f 58be
000002a0: 2f42 9f3e 5345 9e3e d4e8 743c 7fbb e43d
000002b0: 8cbd e23d 3d26 983e c949 c93b 9fa3 2a3e
000002c0: 9136 043e cd87 08be 207f b93c be64 803d
000002d0: c32e 14be 59fb ac3d 8dd6 073e 3935 85be
000002e0: 32c9 e43d 02e8 f4bd ff89 c53e 2b05 60be
000002f0: dfce 54be f6ec 653e ef12 3c3d 22cc 363e
00000300: 273c 913d d399 01be c022 8dbd 60a4 b0bd
00000310: cc3c c0bd 3d06 213c 87de 283e a428 4abe
00000320: d69f 303d 7238 7ebd 7266 b9bc b3a7 95be
00000330: 0149 a7be 74ef bc3c 5eba 7dbe 8b1e 6b3b
00000340: c05e 573c ce56 4e3c d0f2 383c 8178 173d
00000350: 2b0d 1bbc 406d 313e 3a86 eb3d 8175 d33b
00000360: 9d07 993d 20f2 19bd 5411 dabd b315 413e
00000370: 35b7 5b3e 9516 18be 4e3a debd 54b4 753d
00000380: a98f c3bd 2f33 47be 6a22 b0bc 076e 3c3d
00000390: bb43 05be 916a 293c c4dc 81bd 979d ff3c
000003a0: 3fbf 863d 2c6c cdbd ed32 bb3c 7a9d 06be
000003b0: df08 e73d 607c a1bb 7bd2 a7bd 932c f6bd
000003c0: eee3 1fbe 1ff9 8b3d d4cb d8bd a486 7fbe
000003d0: 4267 1b3e 417a 8cbe 8286 fabd 9ca4 0d3f
000003e0: ceee 19be 6574 3e3d b2d0 22be 1b7b 493e
000003f0: 22f5 5dbd 29cd afbe eb82 7fbc 214e 09be
0.086992465 0.13249029 -0.10054244 -0.08773481 -0.054272193 -0.09245771 0.13126257 -0.062426094
0.03060136 -0.3383021 -0.18948226 -0.24012913 -0.118555985 -0.09137327 -0.1600328 -0.13106704
-0.13415903 -0.021260783 -0.08426935 -0.047582194 -0.07002291 0.060962908 0.38272643 -0.06939484
0.29715276 -0.15388638 -0.14997135 0.23528147 -0.031922713 -0.12552606 -0.07442494 0.08917386
-0.08280732 -0.0025042228 -0.08969952 0.14046593 -0.026212472 0.20871916 -0.042124663 0.09578805
-0.19835323 0.041119255 0.16148186 -0.21354468 -0.0884598 -0.10320211 -0.24806747 -0.28008944
-0.24273856 0.080371186 -0.08798556 0.028731745 0.055519022 -0.09338182 -0.020567376 0.23286943
-0.14405282 -0.11712878 -0.11224152 0.20394757 0.0026674778 -0.24431388 -0.19221084 -0.09939625
0.14432977 0.104428455 -0.1323262 0.042747114 -0.11994454 0.008610457 0.047271017 -0.12493057
-0.12113753 -0.16569683 -0.06994123 -0.29765332 0.033275202 -0.13208379 -0.2267238 -0.14303969
-0.106475465 -0.02997358 -0.1573729 -0.28018638 -0.14240114 0.11825722 -0.00191675 -0.29442883
0.12751342 -0.14387223 -0.296359 0.11062879 0.15966468 -0.2692987 -0.25235254 0.1930707
-0.007456496 -0.018740995 0.046546612 0.18612827 -0.04754416 -0.01830498 -0.1571909 0.0021449912
-0.23651858 0.044045106 0.104882695 -0.025732297 -0.19313927 -0.14049348 -0.1179049 -0.19486022
-0.06585475 0.09005814 -0.15171106 -0.19944257 0.107018806 -0.1988505 -0.0131976595 0.20486633
-0.11966931 0.097882494 -0.12690732 0.012881619 -0.17817827 -0.25514725 -0.08890067 -0.18465225
-0.011085002 0.03215821 0.14766313 0.09221259 0.11366279 0.23302403 -0.030093277 0.15557745
0.18804717 0.38953272 0.24323088 0.39142242 0.083836876 0.13906235 0.21080837 0.022658898
0.10141132 0.21999928 0.15690917 0.06515147 0.16507475 -0.2969027 -0.12588301 0.24396893
-0.078958526 0.24545145 0.23958807 -0.22115305 -0.10099068 0.14608635 0.13341586 -0.067305304
-0.08630705 0.0018745954 0.023559893 -0.15731002 0.05970129 -0.20649254 0.15081516 -0.2113022
0.31105182 0.30912265 0.014948089 0.111685745 0.110713094 0.29716673 0.006142829 0.16663979
0.1291144 -0.13333054 0.022643626 0.06269215 -0.14470963 0.08446378 0.13265438 -0.26017168
0.111711875 -0.119583145 0.38581845 -0.21876971 -0.2078204 0.22453675 0.045916494 0.17851308
0.07091551 -0.12656336 -0.06891394 -0.08625102 -0.09386596 0.0098281475 0.16491137 -0.19742066
0.04312118 -0.06206555 -0.022631858 -0.29229507 -0.32672885 0.023063399 -0.24778125 0.003587636
0.013145149 0.012593938 0.01128836 0.036980156 -0.009463589 0.17326832 0.11500211 0.0064532165
0.07472155 -0.037584424 -0.10647836 0.18855934 0.21456607 -0.14852364 -0.108509645 0.059986427
-0.095488854 -0.19453119 -0.021500785 0.046003368 -0.13014118 0.010340349 -0.06340936 0.031203074
0.06579446 -0.10030398 0.022851432 -0.1314601 0.11280989 -0.0049281567 -0.08194443 -0.120202206
-0.15614292 0.068346255 -0.10585752 -0.24953705 0.15176108 -0.27437022 -0.122326866 0.553293
-0.15032503 0.04649772 -0.15899923 0.19675867 -0.054188855 -0.34336212 -0.015595178 -0.1340871

fc2.bias f4 [32]
00000000: a2c0 613c ac20 21bb b59c d23d 7d5a 6ebc
00000010: 49de acbc 9c9c 1c3e 0075 413e 0fa1 933d
00000020: 0548 4c3d 554e 053d 7557 253d 7fe9 3d3e
00000030: 6135 6b3e 9437 3e3d e4c3 213e d5c8 7f3d
00000040: b2f4 bb3d f95f fb3d 93c9 8bbd eb0f b43d
00000050: 73a5 a63d af99 c13c ef78 923d bee9 d53d
00000060: 83ad dcbc 5e51 3c3e 1606 f8bc 7329 b2bd
00000070: 9219 36bd 4be8 203e 5aa6 2fbd 85f5 0e3e
0.013778837 -0.0024586124 0.10283796 -0.014547941 -0.021102088 0.15294117 0.18892288 0.07208454
0.04987337 0.032545406 0.04036661 0.18546103 0.22969581 0.046439722 0.15797383 0.062447388
0.09177531 0.12274165 -0.068255566 0.087920986 0.08137026 0.023632852 0.071519725 0.104449734
-0.026938206 0.18390414 -0.03027634 -0.08699312 -0.04445798 0.15713613 -0.042883255 0.13960846

fc3.weight f4 [1, 32]
00000000: 4e81 6a3e 9f91 cc3e 0f1e c4be 3ac1 613e
00000010: 95dc 843e c02f b7be 12b5 9dbe 65d8 a33e
00000020: d27b d33e 9210 e8be 5151 b13e b01b cabe
00000030: be7c 93be 24c7 7f3e 8075 aabe 2395 ce3e
00000040: 930f b53e 0d1d 00bf 9cb8 a63e 9130 c2be
00000050: 7008 b13e 4456 a13e 08e7 bdbe 23a9 8ebe
00000060: f852 aa3e 5731 88be 82ae 673e 927a c63e
00000070: 8913 b33e ada3 9cbe 3911 933e 5ce4 bdbe
0.22900888 0.3995485 -0.38304183 0.22046366 0.2594954 -0.35778618 -0.30802208 0.32001033
0.41305405 -0.45325142 0.34632352 -0.3947425 -0.28806108 0.2497831 -0.3329277 0.40348157
0.35363445 -0.5004433 0.3256272 -0.37927678 0.3457675 0.31511128 -0.37090325 -0.27863416
0.33266425 -0.26600143 0.22625163 0.3876539 0.34975842 -0.30593625 0.28724077 -0.37088287
